app/src/main/ml/KContentImageModel.tflite (tflite, 149220 bytes, 10 tensors)

sequential/conv2d/Relu;sequential/conv2d/BiasAdd;sequential/conv2d_2/Conv2D;sequential/conv2d/Conv2D;sequential/conv2d/BiasAdd/ReadVariableOp f4 [32, 3, 3, 3]
0	0xba03d9b0	-0.00050296914
1	0xb8dcf74c	-0.0001053648
2	0x392114fa	0.00015361971
3	0xb951b08d	-0.00019997564
4	0x391cb008	0.00014942896
5	0xb980a1c2	-0.00024534581
6	0x395da0cf	0.00021136108
7	0xba15b329	-0.0005710596
8	0x39832648	0.0002501479
9	0x3984f47b	0.00025359154
10	0x39e0175c	0.00042742013
11	0x39b76e0e	0.00034986477
12	0x378e320a	1.695102e-05
13	0x39a4ef68	0.0003145889
14	0x39b04101	0.00033617768
15	0x3981638d	0.00024678968
16	0xb9c252ab	-0.00037064156
17	0xb9ce3097	-0.00039327584
18	0xb8d7f853	-0.00010298253
19	0x39a49c3c	0.0003139692
20	0x39d4d1e0	0.0004059216
21	0x384e8eb7	4.924714e-05
22	0x3949d2d4	0.00019247393
23	0x39ccb4a8	0.00039044512
24	0xba1e2176	-0.0006032208
25	0x38844f8d	6.309068e-05
26	0x39c389bd	0.0003729592
27	0x39aa2395	0.00032451437
28	0x38d266a2	0.00010032697
29	0xb8e6e574	-0.000110099936
30	0xb9ae7666	-0.0003327608
31	0xb9b3a0e7	-0.00034261422
32	0x39f8c838	0.0004745142
33	0x39abdc91	0.00032779996
34	0x3917fb62	0.0001449413
35	0xb9b4a884	-0.0003445783
36	0x396d9a99	0.00022659673
37	0xba05a796	-0.00050985196
38	0xb918f204	-0.00014586007
39	0x39b6edfa	0.00034891051
40	0x39cd772c	0.00039189437
41	0x39c1f336	0.00036993035
42	0xba02992d	-0.00049819314
43	0xb9d09355	-0.00039782622
44	0x3994a683	0.0002835282
45	0xb9699332	-0.00022275446
46	0x390d6c44	0.0001348714
47	0xba1ed9c0	-0.0006059669
48	0x39727d96	0.00023125703
49	0xba1649ed	-0.00057330617
50	0x38c7e045	9.530833e-05
51	0x39024c1b	0.00012426118
52	0x3937a9c3	0.00017515481
53	0xba0837ae	-0.0005196285
54	0x39e0679a	0.000428018
55	0xb91a5eb2	-0.00014721861
56	0xb9cef859	-0.00039476415
57	0xb986d71a	-0.00025718735
58	0xb91aa2f7	-0.00014747294
59	0x39cb8f28	0.00038825837
60	0xb8435630	-4.657189e-05
61	0xb98c06d7	-0.00026707977
62	0x3937a165	0.00017512364
63	0xb9811748	-0.00024622143
64	0xb80530a8	-3.1754986e-05
65	0xb9221d0c	-0.00015460345
66	0x39860d26	0.00025568268
67	0x390da4f8	0.00013508264
68	0xb8f9ad34	-0.00011905507
69	0xb9f87a72	-0.00047393475
70	0xba0a641b	-0.0005279199
71	0x39f8c5b9	0.0004744956
72	0x39e3ae09	0.0004342648
73	0x3829e59f	4.050659e-05
74	0x39333dbc	0.00017093768
75	0xb9122eeb	-0.00013941123
76	0xb903ae3a	-0.00012558038
77	0xb8c025f9	-9.1623464e-05
78	0x3a0765c1	0.0005165004
79	0xb9af51d8	-0.0003343958
80	0x39986fab	0.00029074898
81	0xb8e044e3	-0.000106939835
82	0xb960ff03	-0.00021457304
83	0x396b7258	0.00022453943
84	0xb880078d	-6.104922e-05
85	0xb9914594	-0.00027708395
86	0x39ea98df	0.00044745856
87	0xb9b3fd92	-0.00034330465
88	0x3a0c7101	0.0005357415
89	0xb9dc1a36	-0.000419812
90	0xba2628e5	-0.0006338491
91	0xba035d85	-0.0005011189
92	0x39e81b58	0.0004427086
93	0x389588ef	7.1303795e-05
94	0x39927716	0.00027936016
95	0x3842213e	4.6284164e-05
96	0x3995fab4	0.00028606283
97	0xb897558d	-7.216176e-05
98	0xba08093c	-0.00051893643
99	0xb90e8756	-0.00013592592
100	0x39c2f0ac	0.00037181878
101	0x39ae129e	0.00033201737
102	0xba32e6da	-0.00068245607
103	0x39831afa	0.00025006366
104	0x393b3489	0.0001785328
105	0xb91b3bd4	-0.0001480424
106	0xb7f7202c	-2.9459676e-05
107	0x39b1439f	0.00033810452
108	0xba01e3a1	-0.0004954879
109	0xb9805088	-0.00024474063
110	0x39aa9a42	0.00032539858
111	0xba4e484b	-0.0007869049
112	0x390f737f	0.00013680568
113	0xb9ad16de	-0.0003301417
114	0xba07f482	-0.0005186276
115	0xb8144e99	-3.535915e-05
116	0xb9a601a7	-0.00031663218
117	0xb98480dc	-0.0002527301
118	0x39c3ca49	0.00037344013
119	0xb919a1a5	-0.00014651434
120	0xb847e29a	-4.7656336e-05
121	0x38f60b63	0.00011732315
122	0x39df53ff	0.00042596456
123	0xb9504645	-0.00019862603
124	0xb868f7ad	-5.5543776e-05
125	0x39d08668	0.00039772992
126	0x348e2875	2.6478997e-07
127	0x395360f6	0.00020158649
128	0x39ab19d6	0.0003263491
129	0x38b99401	8.849055e-05
130	0x3a076621	0.00051650597
131	0x374f324a	1.234987e-05
132	0xba0d07aa	-0.0005379865
133	0x38e21e59	0.000107821725
134	0x3a05f4fe	0.0005110054
135	0xb9c21ec9	-0.000370255
136	0xba1376a9	-0.0005625287
137	0xb9489ab4	-0.00019131118
138	0xb9fce359	-0.00048234573
139	0xb94e553f	-0.00019677448
140	0xb90af342	-0.00013251326
141	0xb9f510bf	-0.00046742518
142	0x39e325a9	0.00043324873
143	0xb83332ed	-4.2724354e-05
144	0xb9b041ae	-0.0003361827
145	0xb7d4adc2	-2.5353282e-05
146	0x39d0e513	0.00039843525
147	0x39e3a1d9	0.000434174
148	0x39d4c4b0	0.00040582335
149	0x39ccdfe4	0.00039076724
150	0x38b337c3	8.5457716e-05
151	0xb89b6a52	-7.41078e-05
152	0x395165a3	0.00019969656
153	0x38e7596a	0.00011031593
154	0xb8b22030	-8.493697e-05
155	0xb9afb2cd	-0.00033511818
156	0xba2a9cea	-0.00065083674
157	0x39f6be91	0.0004706276
158	0x3a02f572	0.00049956806
159	0xb9826f10	-0.0002487828
160	0xb7d0438c	-2.4826986e-05
161	0x39f71d9b	0.0004713357
162	0xb9b1b861	-0.00033897444
163	0x399f35fa	0.0003036706
164	0xba2ceee7	-0.00065968785
165	0xb99bf39d	-0.0002974541
166	0xb98a7dab	-0.0002641504
167	0x39824a13	0.00024850722
168	0x39465940	0.00018916
169	0xb9ea8250	-0.00044729048
170	0xb9ba36e0	-0.0003551757
171	0xb9cdb068	-0.0003923208
172	0xb8ba344d	-8.878913e-05
173	0xb829edae	-4.0514096e-05
174	0xba4b8c27	-0.000776472
175	0x38149775	3.5427005e-05
176	0xb58d8c3f	-1.0546136e-06
177	0xb9889bab	-0.00026055923
178	0xb9c4c6b1	-0.0003753207
179	0xb9b0d7b4	-0.00033730047
180	0x39fbb3dd	0.0004800846
181	0x3a135353	0.0005620021
182	0x3994ed21	0.00028405435
183	0xb97aaa54	-0.0002390531
184	0x3a0204f0	0.0004959842
185	0x39d51bb1	0.00040647158
186	0x39dd076a	0.0004215793
187	0xb989c3af	-0.00026276472
188	0x38bd464c	9.025316e-05
189	0xba1c1938	-0.00059546856
190	0xba286866	-0.0006424248
191	0x39834371	0.00025036515
192	0xba06affe	-0.0005137919
193	0xb98b3abe	-0.00026555912
194	0xba1bd020	-0.0005943794
195	0x384a7af5	4.8275066e-05
196	0xb99aa5f7	-0.00029496822
197	0xba2bf18e	-0.0006559127
198	0xb8545e35	-5.0632476e-05
199	0x39a7bb77	0.00031992394
200	0x39b2a821	0.00034076071
201	0x3a296aae	0.0006462735
202	0x39b03dd9	0.00033615416
203	0xba0b62e4	-0.0005317165
204	0xb7475730	-1.1881624e-05
205	0x39a2eb6b	0.00031074448
206	0xb98cd75e	-0.00026863342
207	0xb85ba3ac	-5.23661e-05
208	0x39b64c31	0.00034770512
209	0xb98f5792	-0.0002734033
210	0x3a0abe62	0.00052926515
211	0xb9f145f9	-0.00046019236
212	0x392db177	0.00016564676
213	0x39c47214	0.00037469028
214	0x39e12b73	0.00042947716
215	0xb9ac1240	-0.00032819994
216	0x3960d19e	0.00021440393
217	0xb9251a12	-0.00015745338
218	0xb9da13b4	-0.0004159488
219	0xb9ccc3c8	-0.0003905578
220	0x39d3e8a1	0.00040418378
221	0x39b4c5f1	0.00034479753
222	0xb9157760	-0.00014254218
223	0x38dfe49a	0.00010676049
224	0x39dd6adc	0.0004223202
225	0xba1d26ff	-0.00059948856
226	0xb9e762ce	-0.0004413337
227	0x39f3e442	0.00046518637
228	0x39e0d7d8	0.00042885426
229	0xb9df6404	-0.00042608392
230	0x39cb8b72	0.00038823072
231	0x3a25b7ab	0.0006321619
232	0x3a0e14d0	0.00054199714
233	0x3a194f98	0.0005848347
234	0x37375a12	1.0928621e-05
235	0x399abf10	0.00029515522
236	0xb96314e4	-0.0002165619
237	0xb9b81cee	-0.0003511677
238	0xb9105ea6	-0.0001376817
239	0xba05550a	-0.0005086219
240	0x373bddf7	1.1197749e-05
241	0xb89eb7ae	-7.56824e-05
242	0xb99a2ed3	-0.00029408056
243	0x38b72811	8.733583e-05
244	0x39e8f1b8	0.00044430583
245	0xb8b7fdbd	-8.7733824e-05
246	0xb9ee9a68	-0.0004550994
247	0xba1262e8	-0.0005584196
248	0xba1e2e23	-0.00060340966
249	0xb8fd6ea7	-0.00012084591
250	0x38d61809	0.00010208792
251	0xb9e2c826	-0.000432552
252	0xba0f5800	-0.000546813
253	0xb9afeb17	-0.00033553757
254	0x3919052b	0.00014593142
255	0xba6773f9	-0.0008829232

sequential/conv2d/BiasAdd/ReadVariableOp f4 [32]
0	0xbca5e92f	-0.020252792
1	0x3c1235a2	0.00892392
2	0x3bce993a	0.006304887
3	0xbc2ce53a	-0.010552699
4	0xbbd069f5	-0.0063602873
5	0xbb48e32f	-0.003065299
6	0x3ccf7332	0.025323484
7	0x3cce9c45	0.025221
8	0xbd3f5a06	-0.046716712
9	0x3d311f3f	0.04324269
10	0x3caa6836	0.020801645
11	0x3ce786bc	0.028262489
12	0xbbadfe12	-0.0053098286
13	0x3d113f87	0.035460975
14	0x3c2e08bd	0.010622201
15	0x3b8deb41	0.004331023
16	0xbcfe413c	-0.031036966
17	0xbc498e77	-0.012302033
18	0xbc5bd545	-0.013417547
19	0xbb355d46	-0.0027674004
20	0x3c2c5b0c	0.010519754
21	0x3c94f472	0.018182967
22	0xbb10fc8f	-0.0022123193
23	0x3d4e6bf7	0.050395932
24	0x3d45f5cc	0.048330113
25	0xbc4b777c	-0.012418624
26	0xbc924336	-0.017854314
27	0x3c03e8eb	0.008051137
28	0x3d44c646	0.04804065
29	0x39162591	0.0001431911
30	0xbb507ac2	-0.003181145
31	0x3d8ce29d	0.068791606

sequential/conv2d_1/BiasAdd/ReadVariableOp f4 [32]
0	0x3cc17f8d	0.023620391
1	0x3c7e8490	0.015534535
2	0x3c2fa772	0.010721074
3	0x3c808bd7	0.01569168
4	0x3caabb2b	0.020841202
5	0x3d19e35a	0.037570335
6	0xbc562e99	-0.013072633
7	0x3d20de35	0.039274413
8	0x3d54b488	0.05192998
9	0xbb7aff6a	-0.0038299211
10	0xbac212ec	-0.0014806665
11	0x3ba1cfea	0.0049381154
12	0x3c840f71	0.016120644
13	0x3caabea0	0.02084285
14	0x3caa8bcb	0.020818612
15	0x3b22bb30	0.002483081
16	0xba7a7725	-0.0009554497
17	0x3b9f1f70	0.0048560426
18	0x3c96be1c	0.018401198
19	0xbc3b2b36	-0.0114238765
20	0x3c93b37b	0.018029919
21	0x3aa1eb0c	0.0012353375
22	0xbc4742df	-0.012161939
23	0x3cae29fc	0.021260254
24	0xbc60a3af	-0.0137109
25	0xbc482f02	-0.012218239
26	0x3c56a3c3	0.013100567
27	0xbc3af49b	-0.011410858
28	0x398cbf65	0.0002684548
29	0xbce83589	-0.02834584
30	0x3d0f6a84	0.03501369
31	0xbb0f772a	-0.0021891096

sequential/conv2d_2/BiasAdd/ReadVariableOp f4 [32]
0	0x3d498ac7	0.049204614
1	0x3d0fe20b	0.03512768
2	0x3c00b8e4	0.007856581
3	0x3c26041f	0.0101328185
4	0x3d1dbdae	0.03851097
5	0xbc76e748	-0.01506979
6	0xbc13ee5d	-0.009028998
7	0x3c01ad85	0.007914905
8	0xbc4a06d1	-0.012330727
9	0x3cb1dbbb	0.021711221
10	0x3b9b7b23	0.0047449037
11	0x3d1ea522	0.0387317
12	0x3d003cbf	0.031307932
13	0xbceb88bf	-0.028751729
14	0x3caf04e9	0.021364646
15	0x3c836f77	0.016044362
16	0xbd164cb1	-0.036694232
17	0xbc223ab9	-0.009901696
18	0x3cd33d35	0.025786022
19	0x3d8cb5dd	0.06870625
20	0x3cd8a5b2	0.026446197
21	0xbc9190dc	-0.01776927
22	0xbd01d529	-0.031697426
23	0xbcb2a0c2	-0.02180517
24	0x3c0c19c1	0.008551062
25	0xbc4c66c9	-0.012475678
26	0xbc773868	-0.015089132
27	0x3cc7995e	0.024365123
28	0x3d873df4	0.066036135
29	0x3bcdef45	0.0062846267
30	0xbc8b3ec3	-0.0169977
31	0xbbb9c83c	-0.0056696218

sequential/conv2d_1/Conv2D f4 [32, 3, 3, 32]
0	0x3d587356	0.052844368
1	0x3cfef2dd	0.031121666
2	0xbc1cb74b	-0.009565185
3	0x3c93049f	0.01794654
4	0x3d981e04	0.074276
5	0xbd541ca5	-0.05178513
6	0xbdb77c69	-0.08959276
7	0xbc4510d2	-0.012027936
8	0x3d8eeb05	0.0697842
9	0x3de77b87	0.11302858
10	0x3d91ee90	0.0712558
11	0x3b8c8367	0.0042881253
12	0x3cdd59c6	0.027020346
13	0x3d161b0b	0.036646884
14	0x3d39bb27	0.045344498
15	0xbda1359e	-0.07871555
16	0x3d318a61	0.04334486
17	0xbc930efe	-0.017951485
18	0xbd6737ed	-0.05644982
19	0x3d306f28	0.043074757
20	0x3c5f9b18	0.013647817
21	0x3daf450b	0.08558091
22	0xbca11662	-0.019663993
23	0xbcf5c593	-0.030001437
24	0x3cd14d86	0.025549661
25	0x3dd75d45	0.105158366
26	0x3cda445c	0.026643924
27	0xbc0bd5a5	-0.008534824
28	0xbcfe780a	-0.031063098
29	0x3da2ee34	0.0795559
30	0x3d099787	0.033591773
31	0x3d18ecd3	0.03733523
32	0x3c4cd6d6	0.012502393
33	0xbdb63482	-0.08896734
34	0x3d10795f	0.035272
35	0x3c2199a1	0.009863288
36	0x3c298f10	0.01034905
37	0xbd16d89d	-0.036827672
38	0x3d49332d	0.04912107
39	0xbe0a61ee	-0.1351392
40	0x3cb46cf0	0.022024602
41	0xbbedf04f	-0.007261313
42	0x3da6bdfd	0.08141706
43	0xbdc57a96	-0.09642522
44	0xbd99b112	-0.075044766
45	0xbd34dc3a	-0.044155337
46	0xbca4f487	-0.020136131
47	0xbd73065d	-0.05933224
48	0x3d5a63b9	0.05331776
49	0xbcee9ba5	-0.029126951
50	0x3d4b8b3e	0.04969334
51	0xbbc091d5	-0.0058767595
52	0xbd2ee4a1	-0.042698506
53	0xbde0f741	-0.1098466
54	0x3d459982	0.0482421
55	0x3d663f0b	0.056212466
56	0xbdb613a6	-0.088904664
57	0xbd5e8f07	-0.05433562
58	0xbc5451a0	-0.012958914
59	0xbcbad107	-0.02280475
60	0xbd6d74dc	-0.057972774
61	0x3c9f4380	0.019441366
62	0xbd448383	-0.04797698
63	0xbe190bac	-0.14945859
64	0xbcea82f1	-0.02862689
65	0xbdb2015e	-0.08691667
66	0xbd54666d	-0.051855493
67	0xbde448f5	-0.11146728
68	0xbde92c2f	-0.113853805
69	0xbc9482f4	-0.01812885
70	0x3d9dedb4	0.07711354
71	0x3d30d2ad	0.043169666
72	0x3d486407	0.04892352
73	0x3d6c7c69	0.057735834
74	0x3d17745f	0.036976214
75	0xbd353a06	-0.04424479
76	0x3c959f9b	0.018264582
77	0xbd5a8d56	-0.053357445
78	0xbd9a0c2e	-0.07521854
79	0x3ce9babc	0.028531425
80	0xbd76eeb6	-0.060286246
81	0xbe036b65	-0.12833937
82	0xbd2302d2	-0.03979761
83	0xbd649f54	-0.05581601
84	0x3d6beb80	0.057597637
85	0xbde73886	-0.11290078
86	0xbc951884	-0.018200167
87	0xbdb07939	-0.086168714
88	0x3b96183b	0.004580525
89	0xbdcaa06f	-0.098938815
90	0xbd7ae763	-0.061255824
91	0xbcab17ec	-0.02088543
92	0x3c1a799b	0.009428407
93	0xbd903f38	-0.07043308
94	0xbccc22d3	-0.02491895
95	0xbe11f854	-0.14254886
96	0xbdc38f24	-0.09548786
97	0x3d200559	0.0390676
98	0xbbe50beb	-0.006989946
99	0x3bcfad4a	0.0063377963
100	0x3c76230e	0.015023006
101	0xbe0a1735	-0.13485415
102	0x3dc2a706	0.095045134
103	0xbe22b7ae	-0.1589038
104	0x3d92dee7	0.071714215
105	0xbd9a9319	-0.07547588
106	0xbc5435e0	-0.012952298
107	0x3d9b4ce8	0.07583028
108	0x3db69c8b	0.08916577
109	0x38f9c6a8	0.00011910248
110	0xbd409eeb	-0.047026556
111	0xbba2f506	-0.0049730567
112	0xbd9f56e8	-0.07780248
113	0x3d3ae247	0.04562595
114	0x3d39be23	0.045347344
115	0xbcdbb427	-0.026819302
116	0xbc911f1e	-0.017715033
117	0xbdc6c85f	-0.097061865
118	0x3d6ea965	0.058267016
119	0xbc9170f3	-0.017754054
120	0x3d59d52c	0.053181812
121	0xbdb40f9f	-0.08792042
122	0x39b992a4	0.00035395205
123	0xbde9cfe3	-0.11416604
124	0xbd292628	-0.041296154
125	0x3c401861	0.011724562
126	0x3db70045	0.08935598
127	0x3d988736	0.074476644
128	0x3d333e80	0.043760777
129	0xbdc3382f	-0.095322005
130	0x3ceff829	0.029293137
131	0xbdee6d11	-0.116418965
132	0x3d4fd4aa	0.05073992
133	0xbd3d0077	-0.04614302
134	0xbdcf572b	-0.10124048
135	0xbc3bf164	-0.011471126
136	0xbd60389d	-0.05474149
137	0xbc86c22e	-0.016450014
138	0x3d8b914d	0.06814823
139	0x3d4368a7	0.047707226
140	0xbda7ab92	-0.08187021
141	0xbb369de0	-0.0027865097
142	0xb930e873	-0.00016871262
143	0x3d8dd847	0.06926017
144	0x3c2cb3e6	0.010540938
145	0x3ac6b89b	0.0015161218
146	0x3de4c128	0.11169654
147	0x3db0070d	0.08595095
148	0xbda27dc8	-0.07934147
149	0xbdb3728b	-0.08762082
150	0x3c9fd5b5	0.019511083
151	0x3c84931d	0.01618343
152	0x3ce8827d	0.028382534
153	0x3c7805d9	0.015138113
154	0x3d93451e	0.071909174
155	0x3d301a58	0.042993873
156	0x3dc890af	0.09793221
157	0xbdbc38a0	-0.09190488
158	0x3d15a8d2	0.036537953
159	0xbd5ec30b	-0.054385226
160	0xbd3d6ec0	-0.046248198
161	0xbdc54250	-0.09631789
162	0x3d9cccac	0.076562256
163	0xbca7e723	-0.020495957
164	0x3b3a8be0	0.002846472
165	0x3d897acd	0.067128755
166	0x3d98ff88	0.07470614
167	0xbdb351ba	-0.087558225
168	0xbcf50c11	-0.02991298
169	0x3b17f694	0.0023187743
170	0xbcd24faa	-0.025672752
171	0x3d76dfac	0.060271904
172	0xba90a086	-0.0011034168
173	0x3dab93bc	0.083777875
174	0x3d523567	0.05132046
175	0xbd8e735e	-0.06955598
176	0xbc935c94	-0.01798848
177	0xbd9980f8	-0.07495302
178	0x3c80fcc8	0.015745535
179	0xbd50007e	-0.05078172
180	0xbd26afc8	-0.04069498
181	0x3ddc8106	0.10766797
182	0x3d9407f7	0.07228082
183	0xbcdcbf7e	-0.02694678
184	0xbd0c7a2d	-0.034296203
185	0xbde350e0	-0.1109941
186	0x3d9e9d38	0.07744831
187	0x3cc7d728	0.024394587
188	0xb6c4a200	-5.8601145e-06
189	0xbdb76d4f	-0.08956396
190	0x3c826a66	0.015919875
191	0x3d337b22	0.0438186
192	0x3db1eeaa	0.086881
193	0xbd8409bf	-0.064471714
194	0xbcdd5391	-0.027017387
195	0xbd243113	-0.040085863
196	0x3cce813e	0.025208112
197	0xbc9ce4f5	-0.019152144
198	0x3cdfa3f3	0.027299857
199	0xbc435db0	-0.011924192
200	0xbdd14743	-0.1021867
201	0xbd7e2ebc	-0.062056288
202	0x3cd8666f	0.026416032
203	0x3d6104b2	0.05493612
204	0x3d130ede	0.03590285
205	0x3dba61ef	0.091007106
206	0xbcd9af54	-0.02657286
207	0xbca754aa	-0.020426113
208	0xbd72df09	-0.059294734
209	0x3d1a8c94	0.037731722
210	0x3cc538db	0.024074962
211	0xbd6eee89	-0.058332954
212	0x3cce656a	0.025194842
213	0x3cfef423	0.031122273
214	0x3c61bc63	0.013777825
215	0x3e063566	0.13106307
216	0x3e120cda	0.14262715
217	0x3dd9a958	0.10628003
218	0x3d74f842	0.05980707
219	0xbd4a8d98	-0.04945144
220	0xbd6b1100	-0.05738926
221	0xbb782bd8	-0.003786793
222	0xbd63d14e	-0.05561953
223	0x3d62512e	0.0552532
224	0xbd27844a	-0.040897645
225	0xbd26701d	-0.040634263
226	0xbd023d5b	-0.031796794
227	0xbd0db101	-0.034592632
228	0xbd8524ca	-0.065011576
229	0xbd9df99f	-0.07713627
230	0xbc1a6e70	-0.009425744
231	0xbc3f0160	-0.011658043
232	0x3cc6ca88	0.024266496
233	0xbce41ce8	-0.027845815
234	0x3dddaf81	0.1082449
235	0x3d21fd67	0.039548304
236	0x3cc95b68	0.024579719
237	0x3b825a83	0.003978075
238	0x3dd49995	0.10380856
239	0x3d95b14a	0.07309206
240	0x3c7a4f48	0.015277691
241	0xbd3588d4	-0.044319943
242	0x3d292535	0.04129525
243	0x3d06a15f	0.03286874
244	0xbcffaf3e	-0.031211492
245	0xbd89d8c5	-0.06730799
246	0x3d99310c	0.07480058
247	0xbd463f82	-0.04840041
248	0x3cb3f41f	0.021966992
249	0xbd2a1625	-0.041525025
250	0xbd365373	-0.044513177
251	0x3d7c6a18	0.061624616
252	0x3d649fcb	0.055816453
253	0xbd695e04	-0.056974426
254	0xbce6a356	-0.028154057
255	0xbda1f2a1	-0.07907606

sequential/conv2d_2/Conv2D f4 [32, 3, 3, 32]
0	0xbd0384de	-0.032109134
1	0x3d97e8aa	0.07417424
2	0xbd8ac7d8	-0.067763984
3	0xbc46f7b6	-0.01214402
4	0x3d412ba4	0.04716076
5	0x3d62c0e6	0.055359744
6	0x3d68b4c6	0.056813024
7	0xbd57e095	-0.052704412
8	0x3db75668	0.089520276
9	0xbd27c5fa	-0.04096029
10	0xbda51b39	-0.08061833
11	0x3cab71dc	0.020928316
12	0x3d97abaf	0.07405793
13	0xbd765e84	-0.06014873
14	0x3da91a1a	0.082569316
15	0x3daa42f8	0.083135545
16	0xbc113003	-0.008861545
17	0xba7fdb82	-0.0009760187
18	0x3d838e07	0.06423574
19	0xbc71e42d	-0.014763874
20	0xbca0ea25	-0.019642899
21	0x3d8775df	0.06614279
22	0xbd98a91b	-0.07454129
23	0x39851497	0.00025383077
24	0x3da925f0	0.08259189
25	0xbd478e6f	-0.04871982
26	0xbd0eee00	-0.034894943
27	0x3c27bbad	0.0102376165
28	0xbc1137a6	-0.008863365
29	0x3dbd6406	0.092475936
30	0x3e018143	0.12646966
31	0x3d47b378	0.04875514
32	0x3cdc8191	0.02691725
33	0xbbe20e95	-0.006898711
34	0xbd42d1e6	-0.047563456
35	0x3dcb2804	0.09919742
36	0x3d2b3592	0.041799136
37	0x3d32532f	0.04353636
38	0xbd61b179	-0.05510089
39	0x3d5e7d49	0.0543187
40	0xbcabde49	-0.020980017
41	0xbc81404c	-0.01577773
42	0x3d795fa8	0.06088224
43	0xbdb1be37	-0.08678859
44	0x3d66c08d	0.056335974
45	0xbd45bcd0	-0.04827577
46	0xbca04423	-0.01956374
47	0x3b92bca8	0.004478056
48	0xbd3cfd83	-0.046140205
49	0xbd74ad51	-0.0597356
50	0x3e020afc	0.12699503
51	0xbc5e63db	-0.013573612
52	0x3dc2e50d	0.09516344
53	0xbd0dafcf	-0.034591492
54	0x3cd222f0	0.025651425
55	0xbd864422	-0.06555964
56	0x3ce289f8	0.02765368
57	0xbd95b73e	-0.07310341
58	0xbc4f1702	-0.012639763
59	0xbbbd7e5b	-0.005782885
60	0x3d5a4063	0.05328406
61	0xbcd2f806	-0.025753032
62	0x3cde3ce1	0.027128639
63	0x3cceca13	0.02524284
64	0xbdbd3258	-0.09238118
65	0xbdaa9930	-0.083299994
66	0xbcb3736b	-0.021905622
67	0x3d00ae3c	0.031416163
68	0x3db1fcec	0.08690819
69	0x3ce1e3be	0.027574416
70	0x3de3b374	0.11118212
71	0xbc798bb3	-0.015231061
72	0x3d95bc99	0.07311363
73	0x3d600509	0.054692302
74	0xbdbb1732	-0.091352835
75	0x3cb242b2	0.021760318
76	0x3dcc922c	0.099888176
77	0xbd265ca7	-0.040615704
78	0x3dc618f0	0.09672725
79	0xbbaccffd	-0.0052738176
80	0x3d84e0b9	0.06488175
81	0xbc9f4182	-0.019440416
82	0x3d8fbab9	0.070180364
83	0xbdc867d0	-0.09785426
84	0xbda8a483	-0.08234503
85	0xbd8d9702	-0.06913568
86	0xbd99872a	-0.074964836
87	0xb990a6d8	-0.0002759013
88	0x3dadc49c	0.08484766
89	0xbd0356ff	-0.032065388
90	0x3d08dc63	0.033413302
91	0xbba4b657	-0.0050266194
92	0x3dc1dfa7	0.094664864
93	0x3dacf30d	0.08444796
94	0x3dd9194b	0.106005274
95	0x3a6fb268	0.0009143711
96	0x3d589fee	0.052886896
97	0x3d1cbe5a	0.03826747
98	0x3d7d5516	0.061848722
99	0xbcb0c2e3	-0.021577304
100	0x3d9dde8a	0.077084616
101	0x3d6c3a6b	0.0576729
102	0xbbb2bba5	-0.005454498
103	0x3e1b8e29	0.15190949
104	0xbc9339c2	-0.017971877
105	0x3d43db2f	0.04781645
106	0xbc2e8772	-0.01065241
107	0xbda62231	-0.0811199
108	0x3ca8a735	0.020587543
109	0x3d8566c7	0.06513744
110	0x3dd7494d	0.10512028
111	0x3c9c1063	0.019050783
112	0x3db59475	0.088662066
113	0xbc090b9c	-0.008364584
114	0x3d9dfac0	0.077138424
115	0x3d3d2ce1	0.046185378
116	0xbdb2fc12	-0.08739485
117	0x3dd7f33f	0.105444424
118	0xbd753465	-0.05986442
119	0x3c4cac00	0.01249218
120	0xbd710771	-0.058844987
121	0xbce24cc6	-0.027624499
122	0x3dcfffc3	0.101562046
123	0x3d1465e3	0.03622998
124	0x3d988efe	0.074491486
125	0xbd4f0536	-0.05054208
126	0x3d27007a	0.04077194
127	0xbd170b11	-0.036875788
128	0x3db221a6	0.08697824
129	0x3d9bd1a4	0.07608345
130	0xbc1086a8	-0.008821167
131	0x3bcd57d1	0.006266572
132	0xbd9b0ff1	-0.075714
133	0xbccb4bb3	-0.02481637
134	0x3d15ff12	0.036620207
135	0xbdb40529	-0.08790047
136	0xbd52dcb7	-0.05148002
137	0xbdb00077	-0.08593839
138	0x3d82c047	0.0638433
139	0xbd601240	-0.054704905
140	0xbd859deb	-0.06524261
141	0x3cca6513	0.024706399
142	0x3db489de	0.088153586
143	0x3d728546	0.05920913
144	0xbc427940	-0.011869729
145	0x3b9af3d4	0.0047287736
146	0xbde09e1b	-0.10967656
147	0xbd8a5b91	-0.06755746
148	0x3cebe191	0.028794082
149	0xbda9bc3b	-0.08287855
150	0x3d50f2de	0.051012866
151	0x3d908bae	0.07057892
152	0x3c9a803c	0.018859975
153	0x3d21d560	0.03951013
154	0x3dcae136	0.09906237
155	0x3c6bdc5e	0.014395801
156	0xbd02f6ff	-0.031973835
157	0x3cf6550c	0.03006985
158	0xbd1ab2a1	-0.03776801
159	0x3bc872c9	0.006117199
160	0x3dbf8eef	0.09353434
161	0xbd06e5cc	-0.032933995
162	0x3ddc3bd1	0.107535966
163	0x3d8fed1a	0.070276454
164	0x3cf24aab	0.02957662
165	0xbcc61331	-0.024179073
166	0x3d34ec51	0.04417068
167	0xbcd398fc	-0.025829785
168	0xbce9a123	-0.028519219
169	0xbd3af064	-0.04563941
170	0xbdd413a9	-0.103553124
171	0x3d3c140a	0.04591755
172	0x3dcc2834	0.09968606
173	0x3c32e695	0.010919233
174	0x3d82d380	0.06387997
175	0x3d8ca961	0.06868244
176	0xbd9d6556	-0.07685344
177	0x3be9c8d6	0.007134537
178	0xbd04004c	-0.032226846
179	0x3d465c27	0.048427727
180	0x3d469e5d	0.04849087
181	0xbd852776	-0.06501667
182	0x3dcdb60b	0.100444876
183	0x3daa1b5c	0.08306
184	0x3915db46	0.00014291433
185	0xbdb49b1f	-0.088186495
186	0x38f39c3a	0.000116162424
187	0xbdacf048	-0.084442675
188	0xbd877d6e	-0.06615721
189	0xbdc724a4	-0.097237855
190	0x3d43097b	0.047616463
191	0xbd5ea211	-0.054353777
192	0xbd55bbab	-0.052180927
193	0x3c8e228b	0.017350456
194	0x3c869e39	0.016432868
195	0xbd919dc6	-0.07110171
196	0x3df915f7	0.121623926
197	0x3d9c0960	0.07618976
198	0x3d037e6f	0.032103
199	0xbc8e62a9	-0.01738103
200	0x3d0c8d65	0.03431453
201	0x3dc53ada	0.09630366
202	0x3d885b68	0.06658059
203	0xbd67c6b5	-0.056585986
204	0x3dda4362	0.106573835
205	0xbcde2019	-0.027114915
206	0xbcf37619	-0.0297194
207	0xbd807622	-0.06272532
208	0x3c37e4e1	0.011224003
209	0x3dd0349e	0.10166286
210	0x3d990b97	0.07472914
211	0x3da4d62d	0.08048663
212	0xbd19b743	-0.037528288
213	0xbd01eae7	-0.03171816
214	0x3d59338b	0.05302767
215	0x3c358b78	0.011080615
216	0xbd76e0d8	-0.06027302
217	0x3ca9c70a	0.020724792
218	0x3ca4454c	0.020052575
219	0x3d3b10f8	0.04567048
220	0xbdb66c29	-0.08907349
221	0x3b342441	0.002748743
222	0x3cd1ed9e	0.025626
223	0x3d9a77f9	0.07542414
224	0x3c469458	0.012120329
225	0xbc7a68f5	-0.015283813
226	0xbd092e13	-0.033491205
227	0x3da8a6e5	0.082349576
228	0xbd8299e2	-0.06377007
229	0xbd5c9841	-0.05385614
230	0x3d58a96c	0.05289595
231	0x3d9047c7	0.070449404
232	0xbd92038e	-0.07129584
233	0x3d73fbc9	0.059566293
234	0x3c621393	0.013798612
235	0xbcf76eed	-0.03020426
236	0x3d90c542	0.07068874
237	0xbd7163a0	-0.0589329
238	0x3daf4a72	0.08559121
239	0x3c390830	0.011293456
240	0x3da2d8f2	0.07951535
241	0xbd028823	-0.03186811
242	0xbc296f83	-0.010341528
243	0x3d5f77bc	0.054557547
244	0x3d23208a	0.039825954
245	0x3bf4c4f1	0.0074697663
246	0xbcfa7c8c	-0.030576967
247	0x3e02a0bf	0.12756632
248	0x3c034490	0.008011952
249	0x3c88af93	0.016685283
250	0xbd984eea	-0.07436927
251	0xbd4213cd	-0.047382165
252	0x3d8fd411	0.0702287
253	0x3bbb0f22	0.005708591
254	0x3d5764ea	0.052586474
255	0x3d571fe3	0.052520644

sequential/dense/BiasAdd/ReadVariableOp f4 [128]
0	0x3d9317c7	0.071822695
1	0x3d9c86b1	0.07642878
2	0x3d88b145	0.066744365
3	0x3d8c5627	0.0685237
4	0xbc8125e7	-0.015765144
5	0x3d9ff4ec	0.07810387
6	0xbd069598	-0.032857507
7	0x3c44dd35	0.0120156305
8	0x3cdb9732	0.026805494
9	0xbc1a3dfe	-0.009414194
10	0xbb70129c	-0.0036632186
11	0x3d5af52d	0.053456474
12	0xbbff9c74	-0.007800633
13	0xbb1b35e3	-0.0023683242
14	0xbc566a4c	-0.013086867
15	0x3bc706a5	0.00607379
16	0xbc7116c6	-0.014714902
17	0x3c83d383	0.016092068
18	0xbb62b427	-0.0034592242
19	0xbb2008a6	-0.0024419217
20	0xbb14f50b	-0.0022729065
21	0xbaccdbc0	-0.0015629455
22	0x3dafca66	0.08583526
23	0x3cb78e5d	0.022406751
24	0xbb8de30c	-0.0043300446
25	0xbc440dfc	-0.011966225
26	0x3d3af770	0.04564613
27	0x3bf97852	0.0076132203
28	0x3d2f62cf	0.04281884
29	0xbc13539b	-0.008992101
30	0x3cf38d2d	0.029730404
31	0x3c93a44a	0.018022675
32	0x3bb26a36	0.0054447902
33	0x3bb45a87	0.0055039558
34	0x3c59957e	0.013280271
35	0xbc967310	-0.018365413
36	0x3d4e00b9	0.050293658
37	0x3c71bd4f	0.014754607
38	0xbd050388	-0.03247407
39	0x3c923b32	0.017850492
40	0xbc7d76e9	-0.015470245
41	0x3d71ff4b	0.059081357
42	0x3d33b24c	0.04387121
43	0x3cb5d837	0.022197826
44	0xbcb4cd25	-0.022070477
45	0x3d810d22	0.06301333
46	0x3c3636b3	0.01112144
47	0x3ce97494	0.028497972
48	0x3d73910f	0.05946451
49	0x3dd405d3	0.103526734
50	0x3ac84e35	0.0015282097
51	0x3cc9cb79	0.024633156
52	0xbcf32985	-0.029682884
53	0xbd148962	-0.03626383
54	0xbc0e8219	-0.00869801
55	0xbc95677e	-0.018237825
56	0xbd095e62	-0.033537276
57	0xbc1cad2b	-0.009562771
58	0xbce34189	-0.02774121
59	0x3d0c9e15	0.034330446
60	0xbb03022c	-0.0019990308
61	0xbc9b0c3c	-0.018926732
62	0xbc069681	-0.008214594
63	0xbc9e860d	-0.01935103
64	0xbd0140e1	-0.031556014
65	0xbc906f72	-0.017631266
66	0xbc89af3e	-0.016807195
67	0xbcf5e084	-0.030014284
68	0x3d8d511f	0.06900238
69	0x3ce7e39d	0.028306777
70	0x3d034f49	0.032058034
71	0xbd115644	-0.03548266
72	0x3d50cb54	0.05097516
73	0xbb5e919e	-0.0033961306
74	0x3d88710d	0.06662188
75	0xbb4be596	-0.0031112186
76	0xbc0df72e	-0.008664889
77	0xbc5d2a19	-0.013498806
78	0xbb438fa4	-0.0029840255
79	0x3d6f3139	0.05839655
80	0xbcec4a7b	-0.028844109
81	0xbcbfff70	-0.023437232
82	0xbd0ff8da	-0.035149433
83	0xbc7b58f6	-0.015341034
84	0xbbaf2219	-0.005344641
85	0x3982bbd8	0.00024935487
86	0xbd130978	-0.035897702
87	0x3cf58512	0.02997068
88	0x3d83ae28	0.06429702
89	0xbb7b0197	-0.0038300508
90	0xbb26e494	-0.0025465833
91	0x3cd62c3f	0.026144145
92	0xbb1b066c	-0.002365495
93	0xbcfc3fc4	-0.030792125
94	0xbc36a819	-0.011148476
95	0x3d6efb25	0.05834498
96	0x3c609e33	0.013709593
97	0x3d238682	0.0399232
98	0xbcb62021	-0.022232117
99	0xbd1047ba	-0.035224654
100	0x3dd1bfd3	0.10241666
101	0xbd0602e8	-0.032717615
102	0x3d4c8379	0.04993007
103	0x3d2429cf	0.040078934
104	0xbc19f577	-0.009396902
105	0x3d1558f9	0.036461804
106	0x3bbca113	0.005756506
107	0xbc0be5e7	-0.0085387
108	0x3d1fa6d5	0.038977463
109	0x3c047226	0.008083856
110	0xbc497a00	-0.0122971535
111	0xbc527d48	-0.012847252
112	0x3d662bf2	0.056194253
113	0x3b9a9a3e	0.004718094
114	0x3bf56b0f	0.007489569
115	0xbcc0338a	-0.023462076
116	0x3d1cad2b	0.038251083
117	0xbcb687e6	-0.022281598
118	0xbd1447e5	-0.036201376
119	0xbb2d3f1b	-0.002643532
120	0xbb2c25f1	-0.0026267732
121	0x3d16d8fd	0.03682803
122	0x3c61aa04	0.013773445
123	0x398205c2	0.00024799822
124	0x3d78c5a2	0.060735352
125	0xbc8e1d9a	-0.0173481
126	0xbcddda0b	-0.02708151
127	0xbc864ec7	-0.016394986

sequential/dense_1/BiasAdd/ReadVariableOp f4 [3]
0	0x3d1b0b4e	0.037852578
1	0xbc9fcfb6	-0.019508224
2	0xbc998e7c	-0.0187447

sequential/dense/MatMul f4 [128, 128]
0	0xbda22257	-0.07916706
1	0x3e0e488e	0.13894865
2	0x3d4cf07f	0.050034042
3	0x3dd78b37	0.105246
4	0x3e2b35e2	0.16719773
5	0x3dad6811	0.08467115
6	0x3db3558e	0.08756553
7	0x3d766beb	0.060161512
8	0xbddaf35a	-0.10690947
9	0xbd82b3bd	-0.063819386
10	0x3cb6c2c5	0.02230967
11	0x3d4b071a	0.04956732
12	0x3e0a1dd8	0.13487947
13	0xbdcf24c1	-0.10114432
14	0xbdd67e1e	-0.10473274
15	0x3e37590e	0.17905065
16	0xbdf0a3ab	-0.11749967
17	0xbe20295c	-0.15640777
18	0xbc6b8359	-0.014374577
19	0xbd541ef2	-0.051787324
20	0x3d3a1f3f	0.045439955
21	0xbbb3316c	-0.005468538
22	0xbe590c94	-0.21196204
23	0x3d3aa1fc	0.045564637
24	0xbd5640f8	-0.052308053
25	0xbe0a8105	-0.1352578
26	0xbe1688db	-0.14700644
27	0xbd83c6fe	-0.06434439
28	0x3cb9dc83	0.022688156
29	0xbd8b3450	-0.06797087
30	0x3e12c4b1	0.14332844
31	0x3e255b55	0.16148122
32	0x3d9263e1	0.07147957
33	0x3e278ea5	0.16363008
34	0xbd080783	-0.03321029
35	0xbdea1b1f	-0.11430954
36	0x3d32ed91	0.043683592
37	0x3c64ec3e	0.01397234
38	0xbdd7fa4e	-0.10545789
39	0xbc9469d7	-0.018116875
40	0x3c9913f0	0.018686265
41	0x3e2040b5	0.15649684
42	0xbe21a0ac	-0.15783948
43	0xbdc86f40	-0.09786844
44	0x3cd0a5b7	0.025469644
45	0xbe1ee08b	-0.15515344
46	0x3df45a03	0.11931231
47	0x3dc9b312	0.09848608
48	0xbddbf050	-0.10739195
49	0x3dcf38ac	0.10118231
50	0xbd1df201	-0.03856087
51	0x3b0c63c3	0.0021421767
52	0x3e224e29	0.15850128
53	0x3d9cf11c	0.076631755
54	0xbe56b042	-0.20965675
55	0x3d3eeae6	0.046610735
56	0xbdacca2c	-0.08436999
57	0x3d3af3f7	0.04564282
58	0x3d4f5865	0.05062141
59	0x3e05af17	0.13055073
60	0xbd9bfcd2	-0.07616581
61	0x3d825c03	0.06365206
62	0xbda7fbf5	-0.08202354
63	0xbd9cb7d2	-0.076522484
64	0xbb19b2e2	-0.002345257
65	0x3b77c3ad	0.003780584
66	0xbe15aac3	-0.14615922
67	0xbdad4914	-0.08461204
68	0x3e003620	0.12520647
69	0xbdc8f711	-0.09812749
70	0x3ccfefb2	0.02538285
71	0x3da46b60	0.08028293
72	0xbd9a7172	-0.07541169
73	0x3cfe8e8c	0.031073831
74	0x3cc2ed44	0.023794778
75	0xbd69946a	-0.057026304
76	0x3ca90a5e	0.020634826
77	0xbe0f0ac9	-0.13968958
78	0xbe214913	-0.15750532
79	0x3d965d09	0.07341964
80	0x3e00b90d	0.12570591
81	0xbd842927	-0.06453162
82	0xbbbc422f	-0.0057451944
83	0x3e69652a	0.22792497
84	0x3dc34e34	0.095364004
85	0xbde679a6	-0.11253671
86	0xbcd0f9c2	-0.025509719
87	0xbdbd6f16	-0.092497036
88	0xbd8a10fd	-0.067415215
89	0xbd2fa830	-0.042885005
90	0x3dcbd947	0.09953552
91	0x3e62e567	0.22157823
92	0xbd45750a	-0.04820732
93	0x3d0cee90	0.0344072
94	0xbdc172cf	-0.09445726
95	0xbd628512	-0.055302687
96	0x3d5e2b5c	0.05424057
97	0x3dc5b82a	0.09654267
98	0x3d7203f5	0.059085805
99	0x3d347c04	0.044063583
100	0xb9c5f66d	-0.0003775837
101	0x3dca8db1	0.09890307
102	0xbd5433f7	-0.05180737
103	0xbda7eb88	-0.08199221
104	0xbd60316c	-0.054734632
105	0xbe11e460	-0.14247274
106	0x3e03e6de	0.12881038
107	0x3dfb58da	0.122728065
108	0x3df99fce	0.121886835
109	0xbd79e267	-0.06100693
110	0x3c1e767d	0.0096718045
111	0x3c2812c0	0.010258377
112	0xbde0939c	-0.10965654
113	0xbde9d71f	-0.11417984
114	0xbd2b2f96	-0.04179343
115	0xbd39e50b	-0.045384448
116	0xbdd3fc65	-0.10350875
117	0x3cb62cb1	0.022238107
118	0xbd91b3ea	-0.07114394
119	0x3dc334f0	0.095315814
120	0x3dab28d7	0.08357399
121	0x3bf16db5	0.0073678144
122	0xbcf9ce10	-0.030493766
123	0x3e1c5b14	0.15269119
124	0x3d06708c	0.032822177
125	0x39f5f064	0.00046909146
126	0x3dac69be	0.08418606
127	0x3e02d68d	0.12777157
128	0x3e3b66fa	0.18301001
129	0x3cc96da8	0.024588421
130	0xbc35857a	-0.011079187
131	0xbccea4b1	-0.025225015
132	0x3df71970	0.12065399
133	0x3d6f2297	0.058382597
134	0xbdf25fb1	-0.11834658
135	0x3ce2cea4	0.027686425
136	0xbd56d445	-0.05244853
137	0x3dad4832	0.08461036
138	0x3dfa103d	0.122101285
139	0xbdedf930	-0.11619794
140	0x3e0f90f9	0.14020146
141	0xbe333116	-0.17499194
142	0xbdc8dfa0	-0.09808278
143	0x3db28136	0.08716051
144	0xbe2e54f6	-0.17024598
145	0x3dfa6840	0.12226915
146	0x3dd3d5e8	0.10343534
147	0x3cbd8d0a	0.023138542
148	0x3e18ea4c	0.14933127
149	0xbcd1465b	-0.025546243
150	0x3995cab4	0.0002857052
151	0x3d5103e7	0.051029112
152	0xbcf93d9d	-0.030424887
153	0x3dd4a450	0.103829026
154	0xbd9b1d50	-0.0757395
155	0x3de53140	0.11191034
156	0x3d865361	0.06558872
157	0x3e4926c4	0.19643694
158	0x3c3b5d35	0.0114357965
159	0xbdf75dd6	-0.12078445
160	0x3d44e877	0.04807326
161	0xbd49f6fb	-0.049307805
162	0x3dd68c62	0.10475995
163	0xbd0cb0ce	-0.0343483
164	0x3deab593	0.11460414
165	0xbdd416d9	-0.1035592
166	0xbde9c524	-0.11414555
167	0xbdcbba51	-0.099476464
168	0x3dc501b6	0.09619467
169	0x3e2e7307	0.17036067
170	0x3d9e4b94	0.07729259
171	0x3b223743	0.0024752177
172	0xbc4ff3bb	-0.012692387
173	0xbde9e5b0	-0.114207625
174	0x3d126f65	0.035750765
175	0x3d9a63f9	0.075385995
176	0xbdfd6354	-0.12372461
177	0x3d290c89	0.04127172
178	0x3dffb1fd	0.124851204
179	0xbdaf9675	-0.08573619
180	0xbd2474d1	-0.040150467
181	0xbd5532a6	-0.052050255
182	0xbe37e5a1	-0.1795869
183	0x3d11a284	0.035555378
184	0xbd64cc80	-0.05585909
185	0xbd2f23a0	-0.042758584
186	0xbd84073a	-0.06446691
187	0xbde994d5	-0.114053406
188	0x3d003b09	0.0313063
189	0x3e1521a8	0.1456362
190	0x3cac3ad7	0.02102415
191	0xbe028437	-0.12745748
192	0x3d7a5bde	0.061122768
193	0xbd8b4808	-0.06800848
194	0x3db5271e	0.08845352
195	0x3d1a53db	0.037677627
196	0xbd6a43a7	-0.057193425
197	0xbd1fc0db	-0.03900228
198	0xbdf5221a	-0.11969395
199	0x3d9e5769	0.07731516
200	0x3d09dae7	0.033656027
201	0xbdeb5af8	-0.1149196
202	0xbd43ccff	-0.04780292
203	0x3db41de9	0.087947674
204	0x3df9a0b9	0.121888585
205	0x3d7eb913	0.06218822
206	0x3e3b09ee	0.18265507
207	0x3d4aa0f8	0.049469918
208	0x3e3d82ce	0.1850693
209	0xbe03d632	-0.12874678
210	0xbdc24616	-0.09486024
211	0x3e469f48	0.19396698
212	0x3da6f1aa	0.081515625
213	0xbc5c0925	-0.013429915
214	0x3b08a27c	0.0020848801
215	0xbdea3d34	-0.11437455
216	0x3dd18277	0.10229962
217	0x3dd70504	0.104990035
218	0xbc66d5d0	-0.014089063
219	0x3d4c562e	0.049886875
220	0x3dce5311	0.100744374
221	0x3d020ebc	0.031752333
222	0x3dca07ea	0.09864791
223	0xbde0b79f	-0.10972523
224	0x3e231b55	0.15928395
225	0x3e15df97	0.14636074
226	0x3c976349	0.01847996
227	0x3d895c6b	0.067070805
228	0xbd349de8	-0.044095904
229	0xbd5a8f25	-0.05335917
230	0xbd008a8b	-0.031382125
231	0xbcba79bb	-0.022763124
232	0x3ac05900	0.0014674962
233	0x3ded72e9	0.11594183
234	0xbd603f18	-0.05474767
235	0x3e5f63fb	0.21815483
236	0x3e0bb394	0.13642722
237	0xbd1c4030	-0.03814715
238	0x3d4c70b8	0.049912184
239	0xbdb1b5b5	-0.08677236
240	0xbd7afa55	-0.06127389
241	0x3d95d2d7	0.07315605
242	0xbcb59385	-0.02216507
243	0xbd775770	-0.06038612
244	0x3d5aeda8	0.053449303
245	0xbdf500f8	-0.119630754
246	0xbcec20a0	-0.02882415
247	0x3ddbc416	0.1073076
248	0x3c16a728	0.009195127
249	0x3d2ac640	0.041692972
250	0xbd3f263a	-0.046667315
251	0xbd3bea3d	-0.045877684
252	0x3d633d8e	0.055478625
253	0x3d831f67	0.06402474
254	0xbdcbfdaf	-0.09960496
255	0x3d30ea39	0.043192122

sequential/dense_1/MatMul f4 [3, 128]
0	0x3dc1b05e	0.094574675
1	0x3e8bc8d4	0.27301657
2	0x3e99e562	0.30057818
3	0x3e04f1d4	0.12982875
4	0xb7efb9e4	-2.8577582e-05
5	0x3d8276f0	0.06370342
6	0xbe85476f	-0.26031062
7	0xbe446c72	-0.19181994
8	0x3de86392	0.113471165
9	0xbd77bac1	-0.060480837
10	0xbe38f5fb	-0.18062584
11	0x3e8a5819	0.27020338
12	0x3d1aabb1	0.037761394
13	0xbdb0e909	-0.08638198
14	0xbda8bc1d	-0.08239005
15	0xbe48456c	-0.19557732
16	0x3a0e0f24	0.0005419126
17	0x3e4fbf49	0.20287813
18	0xbdc21db3	-0.09478321
19	0x3d3d3ebb	0.046202403
20	0x3d0de292	0.034639902
21	0xbc87b84b	-0.01656737
22	0x3e2184f8	0.1577338
23	0x3e056745	0.13027675
24	0xbdd99ee9	-0.10626013
25	0xbe08b128	-0.1334883
26	0xbd96046c	-0.07325062
27	0x3d5e1885	0.054222602
28	0x3d9ae3b2	0.07562961
29	0xbdd21fac	-0.10259947
30	0x3e1e4a0c	0.15457934
31	0x3d8501b1	0.06494463
32	0xbdd4dfee	-0.10394274
33	0xbdcced49	-0.10006196
34	0x3c8ac171	0.016937943
35	0xbe30dc23	-0.17271475
36	0x3df1db6b	0.11809429
37	0x3e415beb	0.1888272
38	0xbe5839cf	-0.21115802
39	0x3c9f35aa	0.019434769
40	0xbe237c5b	-0.15965407
41	0x3ea57a96	0.32320088
42	0x3d87ec53	0.06636872
43	0x3e15ccde	0.14628932
44	0xbdd7df62	-0.10540654
45	0x3e6ad0cf	0.22931217
46	0x3e4e33d8	0.20136964
47	0x3d906478	0.07050413
48	0x3dff4bc5	0.12465624
49	0x3e3bf6f0	0.18355918
50	0xbe200dc2	-0.15630248
51	0xbcfeba48	-0.031094685
52	0xbe5e3898	-0.21701276
53	0xbe1c59a2	-0.15268567
54	0xbe795045	-0.24347027
55	0x3e161028	0.146546
56	0x3d953d4b	0.07287081
57	0xbe4c1d0f	-0.1993296
58	0xbe5df458	-0.21675241
59	0x3e0fd09e	0.14044425
60	0xbcdecde0	-0.027197778
61	0xbe32a038	-0.17443931
62	0x3e1460b8	0.1449002
63	0xbe5a908a	-0.213442
64	0xbd81471d	-0.06312392
65	0x3c99833f	0.01873934
66	0xbcb5f964	-0.022213645
67	0xbe469a92	-0.19394901
68	0x3e8ab0ea	0.270881
69	0xbd95b10e	-0.07309161
70	0x3e4c8045	0.19970806
71	0xbe459a0a	-0.19297042
72	0x3e121cab	0.14268748
73	0x3ded7af1	0.11595715
74	0x3e03e4cd	0.1288025
75	0x3e19e2b3	0.15027885
76	0x3ce9f6a8	0.028559998
77	0x3d7f7df3	0.062375974
78	0x3dcd88e3	0.10035875
79	0x3db13f5d	0.08654664
80	0xbde483d5	-0.111579575
81	0x3e1150a8	0.14190924
82	0xbe1c1749	-0.15243258
83	0xbd998e29	-0.07497818
84	0x3c34e81c	0.011041667
85	0xbe4d82b8	-0.20069396
86	0xbe10499e	-0.14090583
87	0xb9db867a	-0.00041871128
88	0x3e7b5197	0.24542843
89	0x3e00f61f	0.12593888
90	0x3c964f8a	0.018348474
91	0x3d3bc4a2	0.04584182
92	0x3e0cd8b4	0.1375454
93	0xbe2c90ef	-0.16852163
94	0xbda06900	-0.07832527
95	0x3e4a297c	0.19742388
96	0x3deb6abb	0.114949666
97	0x3df0ccd9	0.117578216
98	0x3e4ac08f	0.19800018
99	0xbe36cfd4	-0.17852718
100	0x3da4634e	0.08026753
101	0xbd8738f1	-0.066026576
102	0x3e8bed00	0.27329254
103	0x3e3f75dd	0.18697305
104	0x3dca6801	0.098831184
105	0x3d484e66	0.04890289
106	0x3d32bab2	0.043635078
107	0xbe354222	-0.17701009
108	0x3d8b8151	0.068117745
109	0xbdb6cb94	-0.08925548
110	0xbe375546	-0.17903623
111	0xbe60b817	-0.21945225
112	0x3e12a3c0	0.14320278
113	0xbe494b92	-0.19657734
114	0xbe302632	-0.1720207
115	0xbaaee3fb	-0.001334309
116	0x3e86c00e	0.263184
117	0xbdedfbcd	-0.11620293
118	0x3ce84bf1	0.028356524
119	0x3cc14d32	0.02359638
120	0x3d9b885a	0.07594366
121	0x3d1d749c	0.038441285
122	0xbd28866b	-0.041143816
123	0xbda0cda6	-0.07851724
124	0x3e09d825	0.13461359
125	0x3d1d56aa	0.038412727
126	0xbe60c70b	-0.21950929
127	0xbe2d7ab0	-0.16941333
128	0xbe815cef	-0.25266215
129	0x3d8c4577	0.06849187
130	0xbe8b3ff2	-0.27197224
131	0xbe5a00ab	-0.21289317
132	0x3d946051	0.072449334
133	0xbe89fdab	-0.26951346
134	0xbc3019b6	-0.010748317
135	0xbddab699	-0.10679359
136	0x3db82480	0.08991337
137	0xbe3e3e4b	-0.1857845
138	0x3e4a8188	0.19775975
139	0xbd2c8c73	-0.04212613
140	0x3dc2e78f	0.095168225
141	0x3e0119d8	0.12607515
142	0x3d6d61e6	0.05795469
143	0xbe572545	-0.21010311
144	0x3dff0c02	0.12453462
145	0x3da32fd1	0.07968105
146	0xbe53fd9f	-0.20702218
147	0xbdfebea4	-0.124387056
148	0x3e3339c7	0.17502509
149	0x3d35ca78	0.044382542
150	0xbe2f5e4c	-0.17125815
151	0x3e43b28f	0.19111083
152	0x3d6a25be	0.0571649
153	0xbc8e4b4f	-0.017369894
154	0xbdc19d02	-0.09453775
155	0xbe255dad	-0.16149016
156	0xbe3f470d	-0.18679447
157	0x3d451e10	0.048124373
158	0x3e35d623	0.17757468
159	0xbe5ddc06	-0.21665964
160	0xbdf1e2bd	-0.11810825
161	0xbe74f149	-0.23920168
162	0x3e0386e5	0.12844427
163	0xbd3ecada	-0.046580173
164	0xbe51e683	-0.2049809
165	0xbdbae92c	-0.09126505
166	0x3e2c69af	0.1683719
167	0x3c962cd8	0.01833193
168	0xbe342754	-0.17593127
169	0xbe9b6824	-0.3035289
170	0xbe303561	-0.17207862
171	0x3d442271	0.04788441
172	0x3d92322a	0.07138474
173	0x3d323a00	0.043512344
174	0x3d3c4846	0.045967363
175	0x3db0056d	0.08594785
176	0xbe6b9d7d	-0.23009296
177	0xbe272163	-0.1632133
178	0x3e66a080	0.22522163
179	0xbd86d807	-0.06584173
180	0xbd82dace	-0.0638939
181	0x3d7ad7fe	0.061241142
182	0xbe45400b	-0.19262712
183	0xbda1537b	-0.07877251
184	0x3e5e9c7a	0.21739379
185	0x3e0d43a7	0.13795339
186	0x3e33fe63	0.1757751
187	0x3e308c76	0.17241082
188	0xbd643c13	-0.055721354
189	0x3d69f369	0.0571169
190	0xbcbccd77	-0.023047192
191	0x3de6bde7	0.1126669
192	0x3e5231cb	0.20526807
193	0x3ded1018	0.11575335
194	0x3e844aa4	0.25838196
195	0x3da8aeea	0.08236487
196	0xbe3bd58d	-0.18343182
197	0xbda81be1	-0.082084425
198	0xbe4cbc8f	-0.19993804
199	0xbe2ac92e	-0.16678306
200	0xbda3075f	-0.0796039
201	0x3d8489eb	0.06471618
202	0xbd4a3fcb	-0.049377244
203	0xbdfc0443	-0.123055
204	0xbc84284c	-0.016132496
205	0x3e45e5f6	0.19326004
206	0xbdc9b88b	-0.09849652
207	0xbde17435	-0.11008493
208	0x3e3fc272	0.18726519
209	0x3e31e02f	0.17370676
210	0x3cd59663	0.026072687
211	0x3d69b548	0.05705765
212	0x3dfbdc1f	0.12297844
213	0xbe5c7660	-0.21529531
214	0x3e12633e	0.1429567
215	0xbb9a1444	-0.004702123
216	0x3dab85b2	0.0837511
217	0x3e1f9f6f	0.15588163
218	0x3de8b3b1	0.113623984
219	0x3d360138	0.044434756
220	0xbd412bd4	-0.04716094
221	0x3e4c36bb	0.19942753
222	0xbd5ca0c6	-0.053864263
223	0x3d9d54cb	0.076821886
224	0xbc4bdecf	-0.012443258
225	0xbe059d15	-0.13048203
226	0x3d108e2b	0.035291832
227	0x3e60ef80	0.21966362
228	0xbe8c46b6	-0.27397698
229	0x3e577d50	0.21043897
230	0xbcd35163	-0.025795644
231	0x3dea5a94	0.11443058
232	0x3d09190f	0.033471163
233	0xbca5b041	-0.020225646
234	0xbdfe9587	-0.12430864
235	0xbe3e0368	-0.18555987
236	0xbca82aac	-0.02052816
237	0xbe52a454	-0.20570499
238	0x3d868c96	0.065697834
239	0xbddbac1d	-0.107261874
240	0xbd85bcdd	-0.065301634
241	0xbe3ecec8	-0.18633568
242	0x3e46ebb4	0.19425851
243	0xbe37803f	-0.17920016
244	0xbe74684d	-0.23867913
245	0x3e5f5d3d	0.21812911
246	0x3e420715	0.18948014
247	0x3e33d011	0.1755984
248	0xbdef6cd4	-0.11690679
249	0xbe429ec7	-0.19005881
250	0xbce02e0e	-0.02736571
251	0xbd3d93ba	-0.04628346
252	0xbe3ddec0	-0.18542004
253	0x3dec7400	0.11545563
254	0xbdba6383	-0.091010116
255	0xbe47ec61	-0.19523765
